…
          "base_uri": "https://localhost:8080/"
        },
        "id": "JH0338lTn3gk",
        "outputId": "8a3bd6d4-a652-447c-f275-e56cab73b813"
      },
      "execution_count": 17,
      "outputs": [
        {
          "output_type": "stream",
          "name": "stdout",
          "text": [
            "Model: \"sequential\"\n",
            "_________________________________________________________________\n",
            " Layer (type)                Output Shape              Param #   \n",
            "=================================================================\n",
            " rescaling_1 (Rescaling)     (None, 180, 180, 3)       0         \n",
            "                                                                 \n",
            " conv2d (Conv2D)             (None, 180, 180, 16)      448       \n",
            "                                                                 \n",
            " max_pooling2d (MaxPooling2  (None, 90, 90, 16)        0         \n",
            " D)                                                              \n",
            "                                                                 \n",
            " conv2d_1 (Conv2D)           (None, 90, 90, 32)        4640      \n",
            "                                                                 \n",
            " max_pooling2d_1 (MaxPoolin  (None, 45, 45, 32)        0         \n",
            " g2D)                                                            \n",
            "                                                                 \n",
            " conv2d_2 (Conv2D)           (None, 45, 45, 64)        18496     \n",
            "                                                                 \n",
            " max_pooling2d_2 (MaxPoolin  (None, 22, 22, 64)        0         \n",
            " g2D)                                                            \n",
            "                                                                 \n",
            " flatten (Flatten)           (None, 30976)             0         \n",
            "                                                                 \n",
            " dense (Dense)               (None, 128)               3965056   \n",
            "                                                                 \n",
            " dense_1 (Dense)             (None, 5)                 645       \n",
            "                                                                 \n",
            "=================================================================\n",
            "Total params: 3989285 (15.22 MB)\n",
            "Trainable params: 3989285 (15.22 MB)\n",
            "Non-trainable params: 0 (0.00 Byte)\n",
            "_________________________________________________________________\n"
…
          "base_uri": "https://localhost:8080/"
        },
        "id": "eI1n_xvzowKx",
        "outputId": "35378726-8fe6-4785-aafc-61f712a69a54"
      },
      "execution_count": 42,
      "outputs": [
        {
          "output_type": "stream",
          "name": "stdout",
          "text": [
            "Model: \"sequential_3\"\n",
            "_________________________________________________________________\n",
            " Layer (type)                Output Shape              Param #   \n",
            "=================================================================\n",
            " sequential_1 (Sequential)   (None, 180, 180, 3)       0         \n",
            "                                                                 \n",
            " rescaling_3 (Rescaling)     (None, 180, 180, 3)       0         \n",
            "                                                                 \n",
            " conv2d_6 (Conv2D)           (None, 180, 180, 16)      448       \n",
            "                                                                 \n",
            " max_pooling2d_6 (MaxPoolin  (None, 90, 90, 16)        0         \n",
            " g2D)                                                            \n",
            "                                                                 \n",
            " conv2d_7 (Conv2D)           (None, 90, 90, 32)        4640      \n",
            "                                                                 \n",
            " max_pooling2d_7 (MaxPoolin  (None, 45, 45, 32)        0         \n",
            " g2D)                                                            \n",
            "                                                                 \n",
            " conv2d_8 (Conv2D)           (None, 45, 45, 64)        18496     \n",
            "                                                                 \n",
            " max_pooling2d_8 (MaxPoolin  (None, 22, 22, 64)        0         \n",
            " g2D)                                                            \n",
            "                                                                 \n",
            " dropout_1 (Dropout)         (None, 22, 22, 64)        0         \n",
            "                                                                 \n",
            " flatten_2 (Flatten)         (None, 30976)             0         \n",
            "                                                                 \n",
            " dense_3 (Dense)             (None, 128)               3965056   \n",
            "                                                                 \n",
            " outputs (Dense)             (None, 5)                 645       \n",
            "                                                                 \n",
            "=================================================================\n",
            "Total params: 3989285 (15.22 MB)\n",
            "Trainable params: 3989285 (15.22 MB)\n",
            "Non-trainable params: 0 (0.00 Byte)\n",
            "_________________________________________________________________\n"
…
